cuda
Files already downloaded and verified
Files already downloaded and verified
----------------------------------------------------------------
        Layer (type)               Output Shape         Param #
================================================================
            Conv2d-1           [-1, 64, 32, 32]           1,728
       BatchNorm2d-2           [-1, 64, 32, 32]             128
            Conv2d-3           [-1, 64, 32, 32]          36,864
       BatchNorm2d-4           [-1, 64, 32, 32]             128
           Dropout-5           [-1, 64, 32, 32]               0
            Conv2d-6           [-1, 64, 32, 32]          36,864
       BatchNorm2d-7           [-1, 64, 32, 32]             128
           Dropout-8           [-1, 64, 32, 32]               0
        BasicBlock-9           [-1, 64, 32, 32]               0
           Conv2d-10           [-1, 64, 32, 32]          36,864
      BatchNorm2d-11           [-1, 64, 32, 32]             128
          Dropout-12           [-1, 64, 32, 32]               0
           Conv2d-13           [-1, 64, 32, 32]          36,864
      BatchNorm2d-14           [-1, 64, 32, 32]             128
          Dropout-15           [-1, 64, 32, 32]               0
       BasicBlock-16           [-1, 64, 32, 32]               0
           Conv2d-17          [-1, 128, 16, 16]          73,728
      BatchNorm2d-18          [-1, 128, 16, 16]             256
          Dropout-19          [-1, 128, 16, 16]               0
           Conv2d-20          [-1, 128, 16, 16]         147,456
      BatchNorm2d-21          [-1, 128, 16, 16]             256
          Dropout-22          [-1, 128, 16, 16]               0
           Conv2d-23          [-1, 128, 16, 16]           8,192
      BatchNorm2d-24          [-1, 128, 16, 16]             256
          Dropout-25          [-1, 128, 16, 16]               0
       BasicBlock-26          [-1, 128, 16, 16]               0
           Conv2d-27          [-1, 128, 16, 16]         147,456
      BatchNorm2d-28          [-1, 128, 16, 16]             256
          Dropout-29          [-1, 128, 16, 16]               0
           Conv2d-30          [-1, 128, 16, 16]         147,456
      BatchNorm2d-31          [-1, 128, 16, 16]             256
          Dropout-32          [-1, 128, 16, 16]               0
       BasicBlock-33          [-1, 128, 16, 16]               0
           Conv2d-34            [-1, 256, 8, 8]         294,912
      BatchNorm2d-35            [-1, 256, 8, 8]             512
          Dropout-36            [-1, 256, 8, 8]               0
           Conv2d-37            [-1, 256, 8, 8]         589,824
      BatchNorm2d-38            [-1, 256, 8, 8]             512
          Dropout-39            [-1, 256, 8, 8]               0
           Conv2d-40            [-1, 256, 8, 8]          32,768
      BatchNorm2d-41            [-1, 256, 8, 8]             512
          Dropout-42            [-1, 256, 8, 8]               0
       BasicBlock-43            [-1, 256, 8, 8]               0
           Conv2d-44            [-1, 256, 8, 8]         589,824
      BatchNorm2d-45            [-1, 256, 8, 8]             512
          Dropout-46            [-1, 256, 8, 8]               0
           Conv2d-47            [-1, 256, 8, 8]         589,824
      BatchNorm2d-48            [-1, 256, 8, 8]             512
          Dropout-49            [-1, 256, 8, 8]               0
       BasicBlock-50            [-1, 256, 8, 8]               0
           Conv2d-51            [-1, 512, 4, 4]       1,179,648
      BatchNorm2d-52            [-1, 512, 4, 4]           1,024
          Dropout-53            [-1, 512, 4, 4]               0
           Conv2d-54            [-1, 512, 4, 4]       2,359,296
      BatchNorm2d-55            [-1, 512, 4, 4]           1,024
          Dropout-56            [-1, 512, 4, 4]               0
           Conv2d-57            [-1, 512, 4, 4]         131,072
      BatchNorm2d-58            [-1, 512, 4, 4]           1,024
          Dropout-59            [-1, 512, 4, 4]               0
       BasicBlock-60            [-1, 512, 4, 4]               0
           Conv2d-61            [-1, 512, 4, 4]       2,359,296
      BatchNorm2d-62            [-1, 512, 4, 4]           1,024
          Dropout-63            [-1, 512, 4, 4]               0
           Conv2d-64            [-1, 512, 4, 4]       2,359,296
      BatchNorm2d-65            [-1, 512, 4, 4]           1,024
          Dropout-66            [-1, 512, 4, 4]               0
       BasicBlock-67            [-1, 512, 4, 4]               0
           Linear-68                   [-1, 10]           5,130
================================================================
Total params: 11,173,962
Trainable params: 11,173,962
Non-trainable params: 0
----------------------------------------------------------------
Input size (MB): 0.01
Forward/backward pass size (MB): 15.44
Params size (MB): 42.63
Estimated Total Size (MB): 58.07
----------------------------------------------------------------
EPOCHS : 0
…
