cuda
Files already downloaded and verified
Files already downloaded and verified
----------------------------------------------------------------
        Layer (type)               Output Shape         Param #
================================================================
            Conv2d-1          [-1, 6, 220, 220]             456
            Conv2d-2         [-1, 16, 108, 108]             880
            Linear-3                  [-1, 120]       5,598,840
            Linear-4                   [-1, 84]          10,164
            Linear-5                   [-1, 10]             850
================================================================
Total params: 5,611,190
Trainable params: 5,611,190
Non-trainable params: 0
----------------------------------------------------------------
Input size (MB): 0.57
Forward/backward pass size (MB): 3.64
Params size (MB): 21.40
Estimated Total Size (MB): 25.62
----------------------------------------------------------------
Running with Model: LeNet
…
Test set: Average loss: 3.2311, Accuracy: 5249/10000 (52.49%)

EPOCHS : 37

Test set: Average loss: 3.2311, Accuracy: 5249/10000 (52.49%)

EPOCHS : 38

Test set: Average loss: 3.2311, Accuracy: 5249/10000 (52.49%)

EPOCHS : 39

Test set: Average loss: 3.2311, Accuracy: 5249/10000 (52.49%)

Model: LeNet, Test Accuracy: 52.60, Run Time: 3358.07
cuda
Files already downloaded and verified
Files already downloaded and verified
----------------------------------------------------------------
        Layer (type)               Output Shape         Param #
================================================================
            Conv2d-1         [-1, 64, 112, 112]           9,408
       BatchNorm2d-2         [-1, 64, 112, 112]             128
              ReLU-3         [-1, 64, 112, 112]               0
         MaxPool2d-4           [-1, 64, 56, 56]               0
            Conv2d-5           [-1, 64, 56, 56]          36,864
       BatchNorm2d-6           [-1, 64, 56, 56]             128
              ReLU-7           [-1, 64, 56, 56]               0
            Conv2d-8           [-1, 64, 56, 56]          36,864
       BatchNorm2d-9           [-1, 64, 56, 56]             128
             ReLU-10           [-1, 64, 56, 56]               0
       BasicBlock-11           [-1, 64, 56, 56]               0
           Conv2d-12           [-1, 64, 56, 56]          36,864
      BatchNorm2d-13           [-1, 64, 56, 56]             128
             ReLU-14           [-1, 64, 56, 56]               0
           Conv2d-15           [-1, 64, 56, 56]          36,864
      BatchNorm2d-16           [-1, 64, 56, 56]             128
             ReLU-17           [-1, 64, 56, 56]               0
       BasicBlock-18           [-1, 64, 56, 56]               0
           Conv2d-19          [-1, 128, 28, 28]          73,728
      BatchNorm2d-20          [-1, 128, 28, 28]             256
             ReLU-21          [-1, 128, 28, 28]               0
           Conv2d-22          [-1, 128, 28, 28]         147,456
      BatchNorm2d-23          [-1, 128, 28, 28]             256
           Conv2d-24          [-1, 128, 28, 28]           8,192
      BatchNorm2d-25          [-1, 128, 28, 28]             256
             ReLU-26          [-1, 128, 28, 28]               0
       BasicBlock-27          [-1, 128, 28, 28]               0
           Conv2d-28          [-1, 128, 28, 28]         147,456
      BatchNorm2d-29          [-1, 128, 28, 28]             256
             ReLU-30          [-1, 128, 28, 28]               0
           Conv2d-31          [-1, 128, 28, 28]         147,456
      BatchNorm2d-32          [-1, 128, 28, 28]             256
             ReLU-33          [-1, 128, 28, 28]               0
       BasicBlock-34          [-1, 128, 28, 28]               0
           Conv2d-35          [-1, 256, 14, 14]         294,912
      BatchNorm2d-36          [-1, 256, 14, 14]             512
             ReLU-37          [-1, 256, 14, 14]               0
           Conv2d-38          [-1, 256, 14, 14]         589,824
      BatchNorm2d-39          [-1, 256, 14, 14]             512
           Conv2d-40          [-1, 256, 14, 14]          32,768
      BatchNorm2d-41          [-1, 256, 14, 14]             512
             ReLU-42          [-1, 256, 14, 14]               0
       BasicBlock-43          [-1, 256, 14, 14]               0
           Conv2d-44          [-1, 256, 14, 14]         589,824
      BatchNorm2d-45          [-1, 256, 14, 14]             512
             ReLU-46          [-1, 256, 14, 14]               0
           Conv2d-47          [-1, 256, 14, 14]         589,824
      BatchNorm2d-48          [-1, 256, 14, 14]             512
             ReLU-49          [-1, 256, 14, 14]               0
       BasicBlock-50          [-1, 256, 14, 14]               0
           Conv2d-51            [-1, 512, 7, 7]       1,179,648
      BatchNorm2d-52            [-1, 512, 7, 7]           1,024
             ReLU-53            [-1, 512, 7, 7]               0
           Conv2d-54            [-1, 512, 7, 7]       2,359,296
      BatchNorm2d-55            [-1, 512, 7, 7]           1,024
           Conv2d-56            [-1, 512, 7, 7]         131,072
      BatchNorm2d-57            [-1, 512, 7, 7]           1,024
             ReLU-58            [-1, 512, 7, 7]               0
       BasicBlock-59            [-1, 512, 7, 7]               0
           Conv2d-60            [-1, 512, 7, 7]       2,359,296
      BatchNorm2d-61            [-1, 512, 7, 7]           1,024
             ReLU-62            [-1, 512, 7, 7]               0
           Conv2d-63            [-1, 512, 7, 7]       2,359,296
      BatchNorm2d-64            [-1, 512, 7, 7]           1,024
             ReLU-65            [-1, 512, 7, 7]               0
       BasicBlock-66            [-1, 512, 7, 7]               0
AdaptiveAvgPool2d-67            [-1, 512, 1, 1]               0
           Linear-68                 [-1, 1000]         513,000
================================================================
Total params: 11,689,512
Trainable params: 11,689,512
Non-trainable params: 0
----------------------------------------------------------------
Input size (MB): 0.57
Forward/backward pass size (MB): 62.79
Params size (MB): 44.59
Estimated Total Size (MB): 107.96
----------------------------------------------------------------
Running with Model: ResNet-18
…
Test set: Average loss: 0.6030, Accuracy: 8603/10000 (86.03%)

EPOCHS : 37

Test set: Average loss: 0.6070, Accuracy: 8606/10000 (86.06%)

EPOCHS : 38

Test set: Average loss: 0.6034, Accuracy: 8605/10000 (86.05%)

EPOCHS : 39

Test set: Average loss: 0.6157, Accuracy: 8592/10000 (85.92%)

Model: ResNet-18, Test Accuracy: 86.23, Run Time: 8170.24
cuda
Files already downloaded and verified
Files already downloaded and verified
----------------------------------------------------------------
        Layer (type)               Output Shape         Param #
================================================================
            Conv2d-1           [-1, 64, 55, 55]          23,296
              ReLU-2           [-1, 64, 55, 55]               0
         MaxPool2d-3           [-1, 64, 27, 27]               0
            Conv2d-4          [-1, 192, 27, 27]         307,392
              ReLU-5          [-1, 192, 27, 27]               0
         MaxPool2d-6          [-1, 192, 13, 13]               0
            Conv2d-7          [-1, 384, 13, 13]         663,936
              ReLU-8          [-1, 384, 13, 13]               0
            Conv2d-9          [-1, 256, 13, 13]         884,992
             ReLU-10          [-1, 256, 13, 13]               0
           Conv2d-11          [-1, 256, 13, 13]         590,080
             ReLU-12          [-1, 256, 13, 13]               0
        MaxPool2d-13            [-1, 256, 6, 6]               0
AdaptiveAvgPool2d-14            [-1, 256, 6, 6]               0
          Dropout-15                 [-1, 9216]               0
           Linear-16                 [-1, 4096]      37,752,832
             ReLU-17                 [-1, 4096]               0
          Dropout-18                 [-1, 4096]               0
           Linear-19                 [-1, 4096]      16,781,312
             ReLU-20                 [-1, 4096]               0
           Linear-21                 [-1, 1000]       4,097,000
================================================================
Total params: 61,100,840
Trainable params: 61,100,840
Non-trainable params: 0
----------------------------------------------------------------
Input size (MB): 0.57
Forward/backward pass size (MB): 8.38
Params size (MB): 233.08
Estimated Total Size (MB): 242.03
----------------------------------------------------------------
Running with Model: AlexNet
…
Test set: Average loss: 0.5870, Accuracy: 8074/10000 (80.74%)

EPOCHS : 37

Test set: Average loss: 0.5870, Accuracy: 8075/10000 (80.75%)

EPOCHS : 38

Test set: Average loss: 0.5870, Accuracy: 8075/10000 (80.75%)

EPOCHS : 39

Test set: Average loss: 0.5870, Accuracy: 8075/10000 (80.75%)

Model: AlexNet, Test Accuracy: 80.75, Run Time: 3523.40
cuda
Files already downloaded and verified
Files already downloaded and verified
----------------------------------------------------------------
        Layer (type)               Output Shape         Param #
================================================================
            Conv2d-1         [-1, 16, 112, 112]             432
       BatchNorm2d-2         [-1, 16, 112, 112]              32
         Hardswish-3         [-1, 16, 112, 112]               0
            Conv2d-4           [-1, 16, 56, 56]             144
       BatchNorm2d-5           [-1, 16, 56, 56]              32
              ReLU-6           [-1, 16, 56, 56]               0
 AdaptiveAvgPool2d-7             [-1, 16, 1, 1]               0
            Conv2d-8              [-1, 8, 1, 1]             136
              ReLU-9              [-1, 8, 1, 1]               0
           Conv2d-10             [-1, 16, 1, 1]             144
      Hardsigmoid-11             [-1, 16, 1, 1]               0
SqueezeExcitation-12           [-1, 16, 56, 56]               0
           Conv2d-13           [-1, 16, 56, 56]             256
      BatchNorm2d-14           [-1, 16, 56, 56]              32
 InvertedResidual-15           [-1, 16, 56, 56]               0
           Conv2d-16           [-1, 72, 56, 56]           1,152
      BatchNorm2d-17           [-1, 72, 56, 56]             144
             ReLU-18           [-1, 72, 56, 56]               0
           Conv2d-19           [-1, 72, 28, 28]             648
      BatchNorm2d-20           [-1, 72, 28, 28]             144
             ReLU-21           [-1, 72, 28, 28]               0
           Conv2d-22           [-1, 24, 28, 28]           1,728
      BatchNorm2d-23           [-1, 24, 28, 28]              48
 InvertedResidual-24           [-1, 24, 28, 28]               0
           Conv2d-25           [-1, 88, 28, 28]           2,112
      BatchNorm2d-26           [-1, 88, 28, 28]             176
             ReLU-27           [-1, 88, 28, 28]               0
           Conv2d-28           [-1, 88, 28, 28]             792
      BatchNorm2d-29           [-1, 88, 28, 28]             176
             ReLU-30           [-1, 88, 28, 28]               0
           Conv2d-31           [-1, 24, 28, 28]           2,112
      BatchNorm2d-32           [-1, 24, 28, 28]              48
 InvertedResidual-33           [-1, 24, 28, 28]               0
           Conv2d-34           [-1, 96, 28, 28]           2,304
      BatchNorm2d-35           [-1, 96, 28, 28]             192
        Hardswish-36           [-1, 96, 28, 28]               0
           Conv2d-37           [-1, 96, 14, 14]           2,400
      BatchNorm2d-38           [-1, 96, 14, 14]             192
        Hardswish-39           [-1, 96, 14, 14]               0
AdaptiveAvgPool2d-40             [-1, 96, 1, 1]               0
           Conv2d-41             [-1, 24, 1, 1]           2,328
             ReLU-42             [-1, 24, 1, 1]               0
           Conv2d-43             [-1, 96, 1, 1]           2,400
      Hardsigmoid-44             [-1, 96, 1, 1]               0
SqueezeExcitation-45           [-1, 96, 14, 14]               0
           Conv2d-46           [-1, 40, 14, 14]           3,840
      BatchNorm2d-47           [-1, 40, 14, 14]              80
 InvertedResidual-48           [-1, 40, 14, 14]               0
           Conv2d-49          [-1, 240, 14, 14]           9,600
      BatchNorm2d-50          [-1, 240, 14, 14]             480
        Hardswish-51          [-1, 240, 14, 14]               0
           Conv2d-52          [-1, 240, 14, 14]           6,000
      BatchNorm2d-53          [-1, 240, 14, 14]             480
        Hardswish-54          [-1, 240, 14, 14]               0
AdaptiveAvgPool2d-55            [-1, 240, 1, 1]               0
           Conv2d-56             [-1, 64, 1, 1]          15,424
             ReLU-57             [-1, 64, 1, 1]               0
           Conv2d-58            [-1, 240, 1, 1]          15,600
      Hardsigmoid-59            [-1, 240, 1, 1]               0
SqueezeExcitation-60          [-1, 240, 14, 14]               0
           Conv2d-61           [-1, 40, 14, 14]           9,600
      BatchNorm2d-62           [-1, 40, 14, 14]              80
 InvertedResidual-63           [-1, 40, 14, 14]               0
           Conv2d-64          [-1, 240, 14, 14]           9,600
      BatchNorm2d-65          [-1, 240, 14, 14]             480
        Hardswish-66          [-1, 240, 14, 14]               0
           Conv2d-67          [-1, 240, 14, 14]           6,000
      BatchNorm2d-68          [-1, 240, 14, 14]             480
        Hardswish-69          [-1, 240, 14, 14]               0
AdaptiveAvgPool2d-70            [-1, 240, 1, 1]               0
           Conv2d-71             [-1, 64, 1, 1]          15,424
             ReLU-72             [-1, 64, 1, 1]               0
           Conv2d-73            [-1, 240, 1, 1]          15,600
      Hardsigmoid-74            [-1, 240, 1, 1]               0
SqueezeExcitation-75          [-1, 240, 14, 14]               0
           Conv2d-76           [-1, 40, 14, 14]           9,600
      BatchNorm2d-77           [-1, 40, 14, 14]              80
 InvertedResidual-78           [-1, 40, 14, 14]               0
           Conv2d-79          [-1, 120, 14, 14]           4,800
      BatchNorm2d-80          [-1, 120, 14, 14]             240
        Hardswish-81          [-1, 120, 14, 14]               0
           Conv2d-82          [-1, 120, 14, 14]           3,000
      BatchNorm2d-83          [-1, 120, 14, 14]             240
        Hardswish-84          [-1, 120, 14, 14]               0
AdaptiveAvgPool2d-85            [-1, 120, 1, 1]               0
           Conv2d-86             [-1, 32, 1, 1]           3,872
             ReLU-87             [-1, 32, 1, 1]               0
           Conv2d-88            [-1, 120, 1, 1]           3,960
      Hardsigmoid-89            [-1, 120, 1, 1]               0
SqueezeExcitation-90          [-1, 120, 14, 14]               0
           Conv2d-91           [-1, 48, 14, 14]           5,760
      BatchNorm2d-92           [-1, 48, 14, 14]              96
 InvertedResidual-93           [-1, 48, 14, 14]               0
           Conv2d-94          [-1, 144, 14, 14]           6,912
      BatchNorm2d-95          [-1, 144, 14, 14]             288
        Hardswish-96          [-1, 144, 14, 14]               0
           Conv2d-97          [-1, 144, 14, 14]           3,600
      BatchNorm2d-98          [-1, 144, 14, 14]             288
        Hardswish-99          [-1, 144, 14, 14]               0
AdaptiveAvgPool2d-100            [-1, 144, 1, 1]               0
          Conv2d-101             [-1, 40, 1, 1]           5,800
            ReLU-102             [-1, 40, 1, 1]               0
          Conv2d-103            [-1, 144, 1, 1]           5,904
     Hardsigmoid-104            [-1, 144, 1, 1]               0
SqueezeExcitation-105          [-1, 144, 14, 14]               0
          Conv2d-106           [-1, 48, 14, 14]           6,912
     BatchNorm2d-107           [-1, 48, 14, 14]              96
InvertedResidual-108           [-1, 48, 14, 14]               0
          Conv2d-109          [-1, 288, 14, 14]          13,824
     BatchNorm2d-110          [-1, 288, 14, 14]             576
       Hardswish-111          [-1, 288, 14, 14]               0
          Conv2d-112            [-1, 288, 7, 7]           7,200
     BatchNorm2d-113            [-1, 288, 7, 7]             576
       Hardswish-114            [-1, 288, 7, 7]               0
AdaptiveAvgPool2d-115            [-1, 288, 1, 1]               0
          Conv2d-116             [-1, 72, 1, 1]          20,808
            ReLU-117             [-1, 72, 1, 1]               0
          Conv2d-118            [-1, 288, 1, 1]          21,024
     Hardsigmoid-119            [-1, 288, 1, 1]               0
SqueezeExcitation-120            [-1, 288, 7, 7]               0
          Conv2d-121             [-1, 96, 7, 7]          27,648
     BatchNorm2d-122             [-1, 96, 7, 7]             192
InvertedResidual-123             [-1, 96, 7, 7]               0
          Conv2d-124            [-1, 576, 7, 7]          55,296
     BatchNorm2d-125            [-1, 576, 7, 7]           1,152
       Hardswish-126            [-1, 576, 7, 7]               0
          Conv2d-127            [-1, 576, 7, 7]          14,400
     BatchNorm2d-128            [-1, 576, 7, 7]           1,152
       Hardswish-129            [-1, 576, 7, 7]               0
AdaptiveAvgPool2d-130            [-1, 576, 1, 1]               0
          Conv2d-131            [-1, 144, 1, 1]          83,088
            ReLU-132            [-1, 144, 1, 1]               0
          Conv2d-133            [-1, 576, 1, 1]          83,520
     Hardsigmoid-134            [-1, 576, 1, 1]               0
SqueezeExcitation-135            [-1, 576, 7, 7]               0
          Conv2d-136             [-1, 96, 7, 7]          55,296
     BatchNorm2d-137             [-1, 96, 7, 7]             192
InvertedResidual-138             [-1, 96, 7, 7]               0
          Conv2d-139            [-1, 576, 7, 7]          55,296
     BatchNorm2d-140            [-1, 576, 7, 7]           1,152
       Hardswish-141            [-1, 576, 7, 7]               0
          Conv2d-142            [-1, 576, 7, 7]          14,400
     BatchNorm2d-143            [-1, 576, 7, 7]           1,152
       Hardswish-144            [-1, 576, 7, 7]               0
AdaptiveAvgPool2d-145            [-1, 576, 1, 1]               0
          Conv2d-146            [-1, 144, 1, 1]          83,088
            ReLU-147            [-1, 144, 1, 1]               0
          Conv2d-148            [-1, 576, 1, 1]          83,520
     Hardsigmoid-149            [-1, 576, 1, 1]               0
SqueezeExcitation-150            [-1, 576, 7, 7]               0
          Conv2d-151             [-1, 96, 7, 7]          55,296
     BatchNorm2d-152             [-1, 96, 7, 7]             192
InvertedResidual-153             [-1, 96, 7, 7]               0
          Conv2d-154            [-1, 576, 7, 7]          55,296
     BatchNorm2d-155            [-1, 576, 7, 7]           1,152
       Hardswish-156            [-1, 576, 7, 7]               0
AdaptiveAvgPool2d-157            [-1, 576, 1, 1]               0
          Linear-158                 [-1, 1024]         590,848
       Hardswish-159                 [-1, 1024]               0
         Dropout-160                 [-1, 1024]               0
          Linear-161                 [-1, 1000]       1,025,000
================================================================
Total params: 2,542,856
Trainable params: 2,542,856
Non-trainable params: 0
----------------------------------------------------------------
Input size (MB): 0.57
Forward/backward pass size (MB): 34.61
Params size (MB): 9.70
Estimated Total Size (MB): 44.88
----------------------------------------------------------------
Running with Model: MobileNet-V3-Small
…

EPOCHS : 37

Test set: Average loss: 0.4995, Accuracy: 8717/10000 (87.17%)

EPOCHS : 38

Test set: Average loss: 0.4978, Accuracy: 8724/10000 (87.24%)

EPOCHS : 39

Test set: Average loss: 0.4988, Accuracy: 8719/10000 (87.19%)

Model: MobileNet-V3-Small, Test Accuracy: 87.28, Run Time: 4598.54
cuda
Files already downloaded and verified
Files already downloaded and verified
----------------------------------------------------------------
        Layer (type)               Output Shape         Param #
================================================================
            Conv2d-1         [-1, 64, 224, 224]           1,792
              ReLU-2         [-1, 64, 224, 224]               0
            Conv2d-3         [-1, 64, 224, 224]          36,928
              ReLU-4         [-1, 64, 224, 224]               0
         MaxPool2d-5         [-1, 64, 112, 112]               0
            Conv2d-6        [-1, 128, 112, 112]          73,856
              ReLU-7        [-1, 128, 112, 112]               0
            Conv2d-8        [-1, 128, 112, 112]         147,584
              ReLU-9        [-1, 128, 112, 112]               0
        MaxPool2d-10          [-1, 128, 56, 56]               0
           Conv2d-11          [-1, 256, 56, 56]         295,168
             ReLU-12          [-1, 256, 56, 56]               0
           Conv2d-13          [-1, 256, 56, 56]         590,080
             ReLU-14          [-1, 256, 56, 56]               0
           Conv2d-15          [-1, 256, 56, 56]         590,080
             ReLU-16          [-1, 256, 56, 56]               0
        MaxPool2d-17          [-1, 256, 28, 28]               0
           Conv2d-18          [-1, 512, 28, 28]       1,180,160
             ReLU-19          [-1, 512, 28, 28]               0
           Conv2d-20          [-1, 512, 28, 28]       2,359,808
             ReLU-21          [-1, 512, 28, 28]               0
           Conv2d-22          [-1, 512, 28, 28]       2,359,808
             ReLU-23          [-1, 512, 28, 28]               0
        MaxPool2d-24          [-1, 512, 14, 14]               0
           Conv2d-25          [-1, 512, 14, 14]       2,359,808
             ReLU-26          [-1, 512, 14, 14]               0
           Conv2d-27          [-1, 512, 14, 14]       2,359,808
             ReLU-28          [-1, 512, 14, 14]               0
           Conv2d-29          [-1, 512, 14, 14]       2,359,808
             ReLU-30          [-1, 512, 14, 14]               0
        MaxPool2d-31            [-1, 512, 7, 7]               0
AdaptiveAvgPool2d-32            [-1, 512, 7, 7]               0
           Linear-33                 [-1, 4096]     102,764,544
             ReLU-34                 [-1, 4096]               0
          Dropout-35                 [-1, 4096]               0
           Linear-36                 [-1, 4096]      16,781,312
             ReLU-37                 [-1, 4096]               0
          Dropout-38                 [-1, 4096]               0
           Linear-39                 [-1, 1000]       4,097,000
================================================================
Total params: 138,357,544
Trainable params: 138,357,544
Non-trainable params: 0
----------------------------------------------------------------
Input size (MB): 0.57
Forward/backward pass size (MB): 218.78
Params size (MB): 527.79
Estimated Total Size (MB): 747.15
----------------------------------------------------------------
Running with Model: VGG
…
